School/Artificial Intelligence/model.npz (npz, 367882 bytes, 6 tensors)

W1 f8 [256, 100]
00000000: 2e65 131f 9aa4 7cbf c8a2 28b4 c61c 8a3f
00000010: 1459 13a9 f113 57bf f01b 4acd 0157 813f
00000020: d039 a4ee 0ba4 933f fe0d 2033 91dc 753f
00000030: 866d 2bbe 181a 823f 9a71 7e9f 945b 903f
00000040: be10 068e c709 91bf 7555 cd9b 12e9 76bf
00000050: dbcb 56b6 064c 713f 71c0 7698 d4be 4a3f
00000060: 7a2e a2c7 11eb 06bf 3424 4b61 0e98 81bf
00000070: 16a2 db04 5faf 87bf 4b55 619a 83db 773f
00000080: a550 de01 f3f2 67bf 3dce 1f18 0919 603f
00000090: dc67 60f2 a14b 7e3f 6c92 7010 1559 553f
000000a0: edd3 3e8a f194 453f c06a 869d fa98 84bf
000000b0: 8b34 9c14 4209 91bf 7c16 98f9 d90c 7abf
000000c0: 5da2 c9a3 bd6e 943f c9ea ec97 ea0f 8e3f
000000d0: ba66 c478 f363 8c3f 232f 8012 2c6f 8cbf
000000e0: 4c4c 7b61 0a50 80bf 30d9 a535 31aa 9b3f
000000f0: be63 639e 4f74 853f 23c9 d0f7 bc60 903f
00000100: bff3 01f4 c3cb 72bf 9fd1 7038 2b07 82bf
00000110: 86d6 221d c683 84bf 8e7d 1770 6243 673f
00000120: 90b5 7e15 d8ee 8cbf e522 2c74 7b13 57bf
00000130: 6a45 3bec 0395 87bf af4c 92bf e5b5 76bf
00000140: e732 06e0 c0ac 81bf 8e41 df62 9f8b 83bf
00000150: 3a7e 9682 c643 763f e69a dd68 2453 703f
00000160: 4009 58a6 cdde 8abf 01ca fc12 38ad 803f
00000170: 46f5 05d3 41b4 8c3f 247b 9d05 e328 7a3f
00000180: ce13 1e10 2988 91bf 1210 cc2f 9e5f 923f
00000190: 0cea 783f fb42 8d3f 2630 d433 e241 403f
000001a0: 8667 00ab 03e8 723f b785 94d5 f39b 7cbf
000001b0: d32e 85b9 2122 503f 10be a474 87d9 98bf
000001c0: a940 46d8 d63a 86bf ea2d 5830 47df 53bf
000001d0: 6646 39f2 a89d 763f cfba 32a4 500c 803f
000001e0: 7813 7b30 ea42 693f ab69 eca4 8266 87bf
000001f0: d0c3 4727 24b5 80bf 64f8 4d9a f9ec 66bf
00000200: 6d1b 6f36 6b2d 8ebf a166 e60f cb9f 92bf
00000210: bcf8 a428 267e 903f 27d3 9a05 f0c6 713f
00000220: 7c6c 0ca9 ce79 613f 92b4 6520 d0ad 8ebf
00000230: 82f4 3a48 63be 7ebf 20e8 97f4 d487 76bf
00000240: 336e 83c0 d5a9 4fbf 98e7 663d 5586 9bbf
00000250: b2f6 637f df71 873f cd80 cb59 d5e2 81bf
00000260: 0182 2a50 2910 82bf d66d e8e0 9db6 6abf
00000270: 35b2 3834 4e90 8a3f 1f6c 9609 962d 5e3f
00000280: 6b2a 56b4 2ea7 78bf 4871 3c8e b090 6b3f
00000290: 7373 de20 77ad 813f 1a26 44e9 cff5 783f
000002a0: ca23 a1d2 bddb 6fbf f0ba 8a0f 4eee 603f
000002b0: ace8 340d af2e 80bf d2e0 aaf9 12ff 923f
000002c0: 220e 0251 3c87 8c3f a04b 66fb b4fc 773f
000002d0: bb92 4df8 294b 7d3f 50fc 05ff b8b9 7a3f
000002e0: 75fd 9877 d123 923f cc16 0e02 7d46 8cbf
000002f0: a1f1 43d1 09c6 2bbf 2b40 67ab 89df 65bf
00000300: 6596 525a 674c 303f f87d 1a60 91b9 593f
00000310: 983d e1ce ced4 5dbf 51a2 f109 194b 74bf
00000320: 7004 d837 0cb2 853f fc83 9b92 36d0 96bf
00000330: 8a7d 7a59 cd26 91bf 64f2 72c0 9458 82bf
00000340: 7ddb 2442 10d9 85bf 18f0 65db 358f 89bf
00000350: 7a94 c3a3 d76f 7dbf dcca 42ba 445b a13f
00000360: fef8 6817 f279 76bf 4003 cf3c fec4 8cbf
00000370: f663 a2a9 ab50 79bf 2775 2fa6 7cce 723f
00000380: 73c8 c248 2e50 883f 9591 fda3 05a6 57bf
00000390: 1e51 04db 0682 7c3f 15f0 70c3 0cd0 8c3f
000003a0: e491 b207 eb0b 74bf e801 cdc7 03f9 973f
000003b0: da63 0f27 3fc7 89bf a3eb 6eda 8ff3 a0bf
000003c0: b15d c9cd 92e7 90bf 8910 130f c9e9 5bbf
000003d0: b364 a877 1077 83bf 1c3a ae99 98b3 8a3f
000003e0: b145 e34b 4480 6cbf c78b 608c c913 823f
000003f0: 0142 ae45 108d a5bf 147d a807 464a 693f
00000400: dd83 8077 8691 90bf e430 37e3 160d 873f
00000410: f856 b6d7 d27a 9e3f e766 e029 0ed1 91bf
00000420: b972 4b16 5df7 793f c429 7cde 8fd1 813f
00000430: 09d4 5881 0f14 a63f 0ebf 15a2 a751 a2bf
00000440: 1a83 048f 2df9 873f 348f db33 3bfc 99bf
00000450: eebf 2f14 8e29 3dbf 08af 04fe de35 843f
00000460: 011e 95a2 1cba 933f 68c0 d71c 085f 7b3f
00000470: 7f53 71ad db23 8bbf cfa5 d0cd 0ee1 80bf
00000480: d0da 29be 09d1 97bf f9fc 0b6b fc29 8d3f
00000490: 8cec a495 dd54 92bf 40ad 19e9 2d65 6ebf
000004a0: e1f3 3bea 0297 623f 70a6 450b 453c 713f
000004b0: 4be9 f7fa 6591 893f a730 800c 28e3 943f
000004c0: 964f a1e2 0202 753f 7269 85c8 1a79 94bf
000004d0: dbe8 1e1f 9ff1 9cbf 518e 10fb 6bc5 953f
000004e0: 8f08 43d1 eb2b 8f3f ab7f 0230 b6e7 863f
000004f0: 6c41 b36a 8f2f 95bf 4e26 489f 287e 92bf
00000500: 9ee6 7204 e8a1 993f acb5 f7d4 79f5 923f
00000510: aa52 c280 668b 9abf 49df b05e 463a 9cbf
00000520: 6bfb d056 15f1 75bf 4159 f05c ea1f a2bf
00000530: cc23 8b1b f3a7 883f 8594 d503 ae48 933f
00000540: 0159 fc87 3a19 7f3f ba58 1dce e587 80bf
00000550: e317 b690 2645 a63f bad9 ecb2 8e8b 193f
00000560: b073 73ab 0378 57bf 7098 beb9 91ef 98bf
00000570: 7647 5673 911e 8a3f 4659 ff37 e16c 3abf
00000580: c85c 3ef2 81ca 94bf f9c1 f42c 8e71 80bf
00000590: 5a45 3e6a f500 833f 5466 5a17 534d 71bf
000005a0: 6816 b879 3fde 733f f781 494f ad7b 82bf
000005b0: 8038 b6ef ccb1 8ebf 6e91 2c72 c51d 31bf
000005c0: 8eb0 a7c5 ea16 733f 6b49 f598 0f7f 653f
000005d0: f9b5 27df c4aa 69bf 7528 a457 a558 973f
000005e0: d9ad 17e1 0aac 3abf c697 679d a207 92bf
000005f0: 08d7 90b1 2a20 843f 82ad aa9a 9b2a 8abf
00000600: 210e 5928 f74c 8f3f 2b58 532c fae9 843f
00000610: 698c 2dfd 5697 823f 3b54 4b0b a979 85bf
00000620: f92f 070d e9a5 91bf 8c16 ebd6 9b9a 6f3f
00000630: d222 9a9c 0aae 86bf 48c2 2a05 6abc 76bf
00000640: cb49 e3db aa49 8cbf 5553 1c79 b34d 71bf
00000650: a65a b9cc fa32 633f 3ea0 c4cc ba7f 54bf
00000660: 801d 2248 a48d 743f d68d 632f 9779 68bf
00000670: 38cc 6de1 f12b 723f 2a3a 0d54 995c 873f
00000680: cc94 d2ef d904 86bf ec58 8740 5384 6d3f
00000690: 313f 0f94 06b8 6f3f 40b2 faaf 9a3a 84bf
000006a0: 848d d935 375a 7abf 8a7b 5112 3c52 82bf
000006b0: 2108 d831 a226 91bf eca9 4131 d68d 583f
000006c0: a3a3 c389 7923 7dbf 5795 e729 5335 933f
000006d0: b986 5525 f793 923f 8260 a11b fa40 74bf
000006e0: 284a 0ffe 2446 75bf e25c 5a4e 31c6 8abf
000006f0: 7676 d6a3 ed42 89bf 23eb 91c2 a0d3 93bf
00000700: 9180 a1c8 49ef 8fbf ddec 4e1f a4b0 88bf
00000710: 49c2 93c6 0875 94bf 18c4 ada1 5ecc 803f
00000720: 0f0e d402 9d59 7bbf a45d 1f61 e589 953f
00000730: 1532 7597 5ad3 813f 87b8 096e 7de4 7d3f
00000740: 1505 6a35 e151 943f ccb2 d4fd 15fe 57bf
00000750: d5c4 aa97 4b33 913f 961d ddbb 42ee 77bf
00000760: 4b86 2754 8145 89bf 1793 2dcc 2a80 90bf
00000770: b21f 44f4 1e7c 833f aa27 121a 7ef9 82bf
00000780: 3e08 04c3 1d99 82bf 12db d711 0891 52bf
00000790: 4f11 c21c ea87 553f 6b5e e120 398b 573f
000007a0: 3c5e f6e8 8ce1 85bf 6b11 1f96 4acb 8cbf
000007b0: 4d57 39e7 6b57 6dbf c72b ed02 9525 80bf
000007c0: 1575 4ef8 9f72 783f 248f aaf5 cfc1 643f
000007d0: f506 2b84 96e1 7dbf f0af 55d8 4fa4 66bf
000007e0: 7d98 cc7b 8402 783f 1212 1dc5 775e 91bf
000007f0: e23f 6e7a ef10 98bf 7bf5 1449 f0ee 763f
-0.006992914234808452 0.012750198719986186 -0.0014085636105867815 0.00846673400634576 0.01918047565509956 0.005337302385672425 0.00883883791305241 0.01597435210679663
-0.016638868373335162 -0.005593369188166765 0.004222894878171036 0.0008162057937877288 -4.371307382297365e-05 -0.008590805381930001 -0.011564962707283615 0.005824579309849763
-0.00292346441615095 0.001965062868288374 0.007396347622512036 0.0013029771523715107 0.0006586245913157131 -0.010057409221919555 -0.016636879451699598 -0.006359912361863725
0.019953692552379432 0.014678795586964626 0.013862516520521385 -0.013883919062230249 -0.007965165233519887 0.027016419314770335 0.01047575189697791 0.01599402678056906
-0.0045888571186169505 -0.008802735958035877 -0.010016963733828332 0.0028397486318991255 -0.014127433925603922 -0.0014084535220623637 -0.01151469292327319 -0.005544564680479854
-0.008630282246281108 -0.00954365272983251 0.005435729436981835 0.003985540604708437 -0.01312027610675115 0.00814288909859773 0.014015688183230634 0.0063866489452653365
-0.017120973213895323 0.01794287840586157 0.01428791320278313 0.0004961351875478789 0.004615797355677636 -0.006984665372585955 0.0009847001402531377 -0.024267307752948553
-0.010854414439365039 -0.0012129016116685328 0.005521449991265115 0.007835989008837 0.0030836652766503235 -0.01142599168592969 -0.008157999466648663 -0.002798545365691617
-0.014735066984838696 -0.018187687726458738 0.016106220465410756 0.004340112290880416 0.002133277543533261 -0.014979959477125857 -0.007505786724945842 -0.005500633103560332
-0.0009662908278431137 -0.026879627106360354 0.011447664332531946 -0.008733431628059308 -0.008819887885068491 -0.0032609065595019344 0.012970553368256347 0.001841923256825202
-0.006018812598436267 0.003364891848731375 0.008631640139179919 0.006093799737081374 -0.0038889605976106566 0.002066757643056298 -0.007901542273078675 0.018551155556196637
0.01392981645790942 0.005856234513333641 0.007151760048917206 0.006524775163028698 0.01771476070848395 -0.013806320786680891 -0.000211895655077299 -0.0026700676782880537
0.00024869464170715886 0.0015701217347795487 -0.0018207568750943978 -0.004954431350690473 0.01059350533887679 -0.022278645227633107 -0.0167495809424714 -0.008958017466619235
-0.010667922037652872 -0.012480183370591688 -0.00718673929461488 0.03389944814388965 -0.005487390203198437 -0.014047609549267315 -0.00618044906345804 0.004591452513492278
0.011871682734952515 -0.0014433913310877057 0.006959940699989424 0.014068698610678646 -0.004894178472714537 0.023410853452562025 -0.012587064151306327 -0.03310823003217613
-0.016508382616249487 -0.001703687998358768 -0.00950444092909417 0.013037864866217545 -0.003479131118276434 0.008826803776235693 -0.042091854577964945 0.0030871742030879144
-0.016180134815048198 0.011255434807843696 0.029765409866363307 -0.017399045282309535 0.006339419957580966 0.00870048902244925 0.04312179998343175 -0.03577922681404121
0.011705737998057898 -0.02537624839796067 -0.000444981753559225 0.009868375899336992 0.019264647887466072 0.006682426157098666 -0.013251987677145525 -0.008241763740516909
-0.02325835440793861 0.014240238205728494 -0.017901861437377195 -0.0037103554430381325 0.002269273465457009 0.004207868293045189 0.012484356614539968 0.020397783053383602
0.005128871222115713 -0.0199932274711982 -0.028265463137110963 0.021260916899463137 0.015220491717972599 0.01118414243711626 -0.020689240348305146 -0.018059382173339515
0.02503168608811867 0.01851454126692935 -0.025922395333128158 -0.02756605103442603 -0.005356868129694141 -0.03539974579341499 0.01203908851438653 0.018831938728358217
0.007592419278600327 -0.008071704247111778 0.043496327557519775 9.744699921729926e-05 -0.0014324222409449576 -0.024351384126611142 0.012753616649920235 -0.0004032182550849538
-0.02030375519788377 -0.008029089686346845 0.009279172234331657 -0.004224133086290733 0.0048506240377768975 -0.009024957639838667 -0.01498756510298116 -0.0002611739202385198
0.0046605273041501315 0.0026240639341860625 -0.003133186831510978 0.0227990946523637 -0.00040698304755323666 -0.017607251031129832 0.00982697824847946 -0.012776580483964354
0.015283518713778812 0.010211901166638246 0.00907772026193339 -0.010485954911397246 -0.017234460277720107 0.0038579028835979464 -0.011074145225636132 -0.005550779477446151
-0.013812384448475342 -0.004224492136718568 0.0023436449462608975 -0.0012511562554866763 0.005017892575899352 -0.002987666400359616 0.004436440320989603 0.011407087209275597
-0.010751440650276577 0.003603136636438289 0.0038719299777553386 -0.00987740373178625 -0.00643369261306093 -0.008945912655858885 -0.016748937885502472 0.0014986602518783877
-0.00711390949093352 0.01875810569062727 0.01814256825799163 -0.004944779380899546 -0.005193848134654767 -0.013073334888117964 -0.012334686815673051 -0.019361984134302134
-0.01559312480475253 -0.012055666165784401 -0.019977700348081027 0.00820230418114147 -0.006677258800894772 0.021033844044578878 0.00870390677177916 0.007297983131691172
0.019843596348896392 -0.0014643873940471284 0.01679723847582156 -0.005842457465241499 -0.012339601879776249 -0.016113918983495425 0.00951408560696607 -0.009264931841489094
-0.00908110858336297 -0.0011332110219634578 0.0013141428235324442 0.0014370019812498757 -0.010684109553763858 -0.014059622484531705 -0.0035817248806705782 -0.007884182121093887
0.005968689806562529 0.002533823176536292 -0.0072952155630347975 -0.0027638968919543247 0.005861775888467699 -0.016961928754669904 -0.023502103660177805 0.005598963370457506

W2 f8 [100, 1]
00000000: 0665 31e3 8155 a03f 2ef2 7c2a 556b f1bf
00000010: 4844 7a3f 7ab9 d5bf ff8e 3b42 8445 d13f
00000020: fc5e 69de c8e5 e7bf 6627 4f26 68ed d6bf
00000030: 8bb5 ad29 7a42 c7bf d62d 4525 a09f f93f
00000040: a432 9db4 0f65 d1bf f00c 3b86 d9d2 d7bf
00000050: db21 8c72 e5a0 acbf 051a 34c5 501c cc3f
00000060: eb33 a116 570c db3f 78c6 b819 9e4a d1bf
00000070: 78ea 3155 15ad c5bf 3811 4a01 2662 e23f
00000080: 1110 6886 9abb e6bf 35ce d7de 5533 f53f
00000090: 1d54 e0bf 433f e9bf 7d63 da93 bc0d f6bf
000000a0: c217 cb13 67a2 e2bf f53f b6ef 1dcc c53f
000000b0: d38e 572a 49fa edbf 8684 7fb6 a225 a43f
000000c0: 700f 935c 3c45 cbbf 51d2 d832 72c5 e2bf
000000d0: 3548 e3c2 ecdc f0bf 1d16 83bc 4889 c33f
000000e0: 5c9d ac63 9910 dfbf f2cc 5d2e e8ea e53f
000000f0: 46b3 bac2 efef e73f faa6 d557 3c09 c8bf
00000100: 1c6f 86b4 3f62 e83f 40ad b978 da86 dc3f
00000110: d75c 7aae 849f ed3f 8ee9 ca3b 6001 d5bf
00000120: 58a9 d0b7 cd8d b43f 10be 5634 21fc e7bf
00000130: b0b5 d6cd 0a98 c03f b420 6a5c 8aba cb3f
00000140: a7a5 9775 5d86 ec3f 0018 1ab0 b610 9abf
00000150: ceaf ffde eb14 e2bf a3a5 c635 45dd d8bf
00000160: e439 d226 8fad e5bf 70f5 a3f1 b0b9 c73f
00000170: 0c7c 5cd1 869e e8bf a367 2868 2755 c4bf
00000180: d60f 6757 5d76 c33f 997c 1330 b0e0 e53f
00000190: 44f0 a9e3 1c2d b83f c8bf d155 9f8e e23f
000001a0: dae5 d97a f8cb d1bf c6d5 d1a2 cda6 f1bf
000001b0: 22ef 8dbf b589 e3bf 54e6 eeb4 f0e8 ef3f
000001c0: 4531 4b89 25e0 e13f d7bb c3f7 c9f6 e33f
000001d0: 0f4e c7c7 115a b0bf eea3 3bda bc2b c2bf
000001e0: c578 6566 529d f03f 1656 d2f0 3e16 e23f
000001f0: 25aa 58e3 fb86 f1bf 67aa 2083 d59e e9bf
00000200: e37f 5ef6 14a1 e03f 7402 5f80 cfc0 ebbf
00000210: e2fb 2a22 7e94 d83f 7495 b22e 54b2 f13f
00000220: cd49 9b5a 8389 bcbf 1c36 e0f9 8005 e2bf
00000230: 2dad e0c5 78d1 f33f 38ab d0c0 5c74 bcbf
00000240: 26c2 f10e bc5b d13f dfd6 cfba 1f9d ebbf
00000250: 5f27 cf8f 2032 b83f f50e 980b d2d9 92bf
00000260: e67f 34c4 19cd d3bf bdad 5f7f 69fc b8bf
00000270: 76c2 7990 d7ea db3f 62ac 80c5 e920 e73f
00000280: 3afb 075a 5bb0 da3f d863 9e5d 8aac e1bf
00000290: 59d2 bbf1 439f debf 334f 69cc 2724 dcbf
000002a0: 8c86 454d 52f2 b4bf 1b18 b6a1 fc8d ca3f
000002b0: 3b1b b8c0 9d3c c9bf 7cc9 7835 b188 e23f
000002c0: 9beb b6fa b884 983f bde0 9d95 b8b8 b13f
000002d0: ed2f 6631 a18e be3f a9f2 9421 1d5e cabf
000002e0: 3100 4330 11d2 d43f a7c2 054c f83a b6bf
000002f0: ba33 2901 6845 db3f 6368 9213 f3d8 d23f
00000300: 1ce4 3ab8 73e7 e9bf d67b 9737 1372 bebf
00000310: 1499 78b2 f5a9 d1bf ec38 bdae 3482 c8bf
0.03190236948348439 -1.0887042674722909 -0.33944565009102634 0.2698679587176542 -0.7467998832680389 -0.3582401632416946 -0.18171622309766308 1.6014710861080537
-0.2717932952698823 -0.37224424465621464 -0.05591504119189824 0.21961412076071 0.42262818536693086 -0.2701792956532709 -0.16934458408271147 0.5744810128385671
-0.7104008317114695 1.325033064346724 -0.7889727351745283 -1.378353669692131 -0.5823245417202474 0.17029165463145515 -0.9368024661057127 0.03934963681945995
-0.2130504085563376 -0.586602305708377 -1.053936730652379 0.1526270790547394 -0.485388133371506 0.6849251657098689 0.7480391314798929 -0.18778185166166123
0.7619932676202299 0.4457307986219412 0.9257224471829443 -0.3282089790260664 0.08028875100777577 -0.7495275518649027 0.1296399598190141 0.2166302634470917
0.8914019867635731 -0.025454382418068633 -0.5650538783497667 -0.3885052704959781 -0.6774364240862352 0.1853543453106954 -0.7693513955199491 -0.15884869180518732
0.15204970138267865 0.6836777628885954 0.09443836744498052 0.5799099613341179 -0.2780743789404291 -1.1032234535353935 -0.6105602971360649 0.9971850904323198
0.5586116487043361 0.6238756026413012 -0.06387435080915103 -0.14195976882845635 1.0384086608751641 0.5652155593440422 -1.0954550629345559 -0.8006389199338856
0.5196633159539455 -0.8672864444016128 0.3840632756873089 1.1060373138546682 -0.11147328340601988 -0.5631718521487445 1.2386405686946305 -0.1111505480518361
0.27122403582964905 -0.8629301689786323 0.09451488028494513 -0.018409044225349686 -0.3093933502259446 -0.0976015029879624 0.4362086211104165 0.7227677209351777
0.41701396743876595 -0.5523120716562699 -0.47847078902058154 -0.43970675432250345 -0.08182253252518928 0.2074580945592864 -0.19716236028781417 0.5791860622760363
0.023943796446228665 0.06922486927749368 0.1193638558963241 -0.2059971250509041 0.3253214808755756 -0.08683730941789723 0.42611122239469135 0.2944915476924789
-0.8095034216158896 -0.11892814738483479 -0.275998520172281 -0.19147356540856408

b1 f8 [100, 1]
00000000: bfef 29fa 177e 28bf bb43 e91b 6e70 a03f
00000010: a7f0 4e2d 8c2b 713f 95b3 d78a 092e 5cbf
00000020: 2988 715d 1ddd 8f3f 8fd6 374d bb35 723f
00000030: 474a 9785 9559 4f3f 100a 4f1f 1292 a8bf
00000040: 6747 26a1 cefc 603f 3ac6 ef2d 877e 723f
00000050: 3d2e 66b0 1156 2e3f 34d9 86d5 c00a 6abf
00000060: 51d0 4fb6 3414 80bf 00b9 6259 b3f4 5b3f
00000070: bd6e d932 5da7 453f 166f 72fc 09ac 89bf
00000080: 61e4 ccc7 2653 903f a149 995d 4c68 a3bf
00000090: 2ca5 4a35 6af3 943f 3765 548c 7339 a33f
000000a0: 56e9 4215 4105 843f c318 b584 50f5 56bf
000000b0: bb35 d43b dcaa 963f 9282 612a 277e 2bbf
000000c0: c697 069a fdf7 513f 81f8 4f08 dba6 823f
000000d0: 5bd2 5e7e 2d2f 9c3f 005b de4b bfe6 54bf
000000e0: 2fdf d04b 64be 803f 8ba1 7e3f 4e77 8ebf
000000f0: ed01 fa85 c1b1 93bf 1613 e0be 186c 593f
00000100: fcb3 e076 0c08 94bf e9f6 a624 4355 79bf
00000110: be34 403e 92cb 9abf f83e b0a4 8e16 6b3f
00000120: 66f3 b133 4e7d 40bf 3940 c94d b120 913f
00000130: 0419 818d fc32 40bf a1e6 c4f9 be69 57bf
00000140: e947 5c97 9efc 95bf 6482 5b6a 4896 1d3f
00000150: a4d3 3e5b 8846 853f 6b88 dd30 3911 773f
00000160: 68e4 fb2a 02ff 903f 8e77 234d c028 51bf
00000170: 202a 5d10 9cbd 913f 02fc 4de2 1f67 503f
00000180: 3e2e 2633 1f9a 4cbf 889b 7dca 677d 8cbf
00000190: d403 0b60 059a 3dbf a59e ca62 febc 83bf
000001a0: e33c 3fad 3918 6e3f 3656 1b2a 9a6e 9b3f
000001b0: 90d8 85a4 7561 893f a835 e50a 68c9 9dbf
000001c0: fa88 f917 d436 85bf 65c1 b9ca 84d2 8abf
000001d0: 6014 f9a7 f14a 2b3f 904f 5eaf de1a 4b3f
000001e0: e44c ca73 3af5 9fbf e80e 50f4 50d3 86bf
000001f0: 9eb3 1c8e 1841 9b3f e2a3 e7fa e71b 933f
00000200: 40f9 2fda f338 84bf c56e 7aee b2f3 953f
00000210: 1eb1 6c6c 4290 7bbf ac97 5cac e7a1 a0bf
00000220: 401b 91cc 9077 403f 611e 9dcd bb61 803f
00000230: bfc4 eb15 2f8f a1bf 607b 9ecf fb22 3e3f
00000240: 042f fd06 8ae7 66bf 8a6e 2974 f234 953f
00000250: a30a 6287 3bec 3ebf a93d 429f 921b 113f
00000260: b101 2f6d 6259 6d3f 1b9f efe1 553d 353f
00000270: e6e3 bc36 f1f1 7ebf 2bcf a4d4 d26d 8dbf
00000280: 1af8 516f 7788 75bf 5e67 3720 2173 883f
00000290: be35 1625 940c 7b3f 30eb 28a7 ef6a 7b3f
000002a0: b966 8135 12f1 393f 43fd b1b1 7a46 57bf
000002b0: 3058 6d13 fad7 5f3f c6c5 61f2 5c67 86bf
000002c0: d9fb b265 8c37 1cbf 4d5a 02a4 f184 39bf
000002d0: 633c ab76 c99d 4bbf 7da7 fd69 bfd1 263f
000002e0: 58b8 9312 4981 6ebf 6eb3 8cff c729 353f
000002f0: 29cf 3b29 82bd 71bf 78c4 25e3 66a7 57bf
00000300: 0b12 b8d6 b90a 953f 36f7 cb4f 8068 443f
00000310: 3a9d c2a5 e67d 693f a7c4 9c3c 6504 443f
-0.00018686335268458355 0.03210777369225278 0.004191920820570661 -0.0017199605166482214 0.015558461584252186 0.004445773741726846 0.0009567241751774002 -0.04798943168818337
0.002073672841285057 0.004515197796523257 0.00023144689494035585 -0.003178955678062279 -0.007851039708818204 0.0017062903839746846 0.0006608204909741216 -0.012535169617244029
0.015942197747083834 -0.03790510790408353 0.020459804060611805 0.03754769409187946 0.009775646649690255 -0.0014012609779725938 0.022136155273121832 -0.00020975330443475222
0.0010967232302418902 0.009107314292119863 0.027523718679463332 -0.0012757175568133827 0.008175643504827327 -0.014875994980528847 -0.01923277263859007 0.0015516511589350238
-0.019561953311654875 -0.006184828069704309 -0.026167187737929913 0.00330665454885792 -0.0005032188268071335 0.01672627484578035 -0.000494359318516741 -0.001429020404499694
-0.021471479404745173 0.00011286561001667413 0.0103884365888492 0.005631659891010536 0.01659778010705218 -0.0010473134939767734 0.017324865816855106 0.0010011493079387095
-0.0008728649466304762 -0.013911066882156722 -0.00045168524961175277 -0.009637820615650947 0.003673660898108376 0.02678910142898002 0.01239292057355737 -0.029088617005347622
-0.010358483297015376 -0.01309684508962112 0.00020822715667826158 0.0008271777467023667 -0.031208909337306148 -0.01114524121840739 0.026615508722148122 0.01866114109899176
-0.009874253364611563 0.02143745022350065 -0.00672937342350746 -0.03248523692154434 0.0005025345827867969 0.007998912060102005 -0.03429553167905785 0.0004598488591173646
-0.0027959533544271737 0.020709789600330576 -0.00047184422818006606 6.526071939760035e-05 0.003582660903220091 0.0003240904497361239 -0.007554952851756424 -0.014369628061650616
-0.005257097761498764 0.011938341899554391 0.006603792849444399 0.006693779129416197 0.00039583868556789973 -0.0014206121620928415 0.0019435827395759657 -0.010939336916837027
-0.00010763925949940026 -0.00038939380102346184 -0.0008427842816106753 0.00017409764859204957 -0.0037237574766697916 0.0003229249264673971 -0.004331119958567866 -0.0014437203177204688
0.02054872868576933 0.0006228090784074828 0.0031117920717239874 0.0006108755417014903

b2 f8 [1, 1]
00000000: e1c6 6dd5 3884 9fbf
-0.0307778244272815

train_error f8 [10000]
00000000: 4fa6 9b44 6f33 e63f 1aa6 09cf aa32 e63f
00000010: d516 c111 bf31 e63f 37b6 a61a f630 e63f
00000020: d1e2 cc59 5f30 e63f b2f5 7ccb f02f e63f
00000030: 245c 1e55 9b2f e63f e033 e005 532f e63f
00000040: 29e1 6495 102f e63f 4f3b 1952 d02e e63f
00000050: d5ea a8aa 902e e63f ebd4 5717 512e e63f
00000060: 9a1a 4c7a 112e e63f 11ca bcd4 d12d e63f
00000070: 7752 082b 922d e63f 21c6 c87d 522d e63f
00000080: 4051 23ca 122d e63f cad8 780b d32c e63f
00000090: 1115 a43c 932c e63f 3e42 8f58 532c e63f
000000a0: f749 5d5a 132c e63f 5235 633d d32b e63f
000000b0: e58e 15fd 922b e63f f967 f894 522b e63f
000000c0: 4f4e 9500 122b e63f ed18 763b d12a e63f
000000d0: cd9a 2241 902a e63f 89bb 1f0d 4f2a e63f
000000e0: 5719 ef9a 0d2a e63f 46ce 0ee6 cb29 e63f
000000f0: 7d34 f9e9 8929 e63f e6a1 24a2 4729 e63f
00000100: 601d 030a 0529 e63f 6f10 021d c228 e63f
00000110: cff7 89d6 7e28 e63f c513 fe31 3b28 e63f
00000120: 9118 bc2a f727 e63f e8de 1bbc b227 e63f
00000130: 6114 6fe1 6d27 e63f c1eb 0096 2827 e63f
00000140: fdcc 15d5 e226 e63f 0805 eb99 9c26 e63f
00000150: 4575 b6df 5526 e63f ae42 a6a1 0e26 e63f
00000160: 9d84 e0da c625 e63f 3ef3 8286 7e25 e63f
00000170: a395 a29f 3525 e63f 686f 4b21 ec24 e63f
00000180: fb2d 8006 a224 e63f 6cd5 394a 5724 e63f
00000190: d16c 67e7 0b24 e63f 33aa edd8 bf23 e63f
000001a0: fe9d a619 7323 e63f ed5d 61a4 2523 e63f
000001b0: 7caf e173 d722 e63f c8b1 df82 8822 e63f
000001c0: ed86 07cc 3822 e63f c9fc f849 e821 e63f
000001d0: 2c35 47f7 9621 e63f 714d 78ce 4421 e63f
000001e0: 7b05 05ca f120 e63f 0b66 58e4 9d20 e63f
000001f0: 7166 cf17 4920 e63f 9191 b85e f31f e63f
00000200: 41aa 53b3 9c1f e63f ea4e d10f 451f e63f
00000210: 799c 526e ec1e e63f 93d0 e8c8 921e e63f
00000220: 04eb 9419 381e e63f 7b4e 475a dc1d e63f
00000230: 6a60 df84 7f1d e63f 2f28 2b93 211d e63f
00000240: 59ed e67e c21c e63f 31d5 bc41 621c e63f
00000250: 5c7f 44d5 001c e63f a6a1 0233 9e1b e63f
00000260: f1a2 6854 3a1b e63f 4735 d432 d51a e63f
00000270: f9ee 8ec7 6e1a e63f e0e2 cd0b 071a e63f
00000280: ac37 b1f8 9d19 e63f 49be 4387 3319 e63f
00000290: 4387 7ab0 c718 e63f 4377 346d 5a18 e63f
000002a0: 85da 39b6 eb17 e63f 58f7 3b84 7b17 e63f
000002b0: 939f d4cf 0917 e63f 14c1 8591 9616 e63f
000002c0: 2af5 b8c1 2116 e63f fd0e bf58 ab15 e63f
000002d0: e3a8 cf4e 3315 e63f acb0 089c b914 e63f
000002e0: d2f2 6d38 3e14 e63f 98a4 e81b c113 e63f
000002f0: 18ed 463e 4213 e63f 226d 3b97 c112 e63f
00000300: 16c6 5c1e 3f12 e63f 8c1f 25cb ba11 e63f
00000310: e1ab f194 3411 e63f a82b 0273 ac10 e63f
00000320: e36f 785c 2210 e63f 27db 5748 960f e63f
00000330: 8ce1 842d 080f e63f 7187 c402 780e e63f
00000340: 20df bbbe e50d e63f 3785 ef57 510d e63f
00000350: e11b c3c4 ba0c e63f f4c4 78fb 210c e63f
00000360: c49a 30f2 860b e63f d527 e89e e90a e63f
00000370: 5add 79f7 490a e63f 7888 9cf1 a709 e63f
00000380: 68c6 e282 0309 e63f 5777 baa0 5c08 e63f
00000390: 1a30 6c40 b307 e63f bcaa 1a57 0707 e63f
000003a0: c335 c2d9 5806 e63f 6422 38bd a705 e63f
000003b0: 6c31 2af6 f304 e63f 14ff 1d79 3d04 e63f
000003c0: a06d 703a 8403 e63f cf0e 552e c802 e63f
000003d0: 308c d548 0902 e63f 4f0e d17d 4701 e63f
000003e0: c0a2 fbc0 8200 e63f 0ba1 dd05 bbff e53f
000003f0: 830e d33f f0fe e53f 0201 0b62 22fe e53f
00000400: 9100 875f 51fd e53f 0b68 1a2b 7dfc e53f
00000410: aec4 69b7 a5fb e53f b134 eaf6 cafa e53f
00000420: d2c4 e0db ecf9 e53f f3cc 6158 0bf9 e53f
00000430: cd4b 505e 26f8 e53f ab41 5ddf 3df7 e53f
00000440: 460a 07cd 51f6 e53f d1b5 9818 62f5 e53f
00000450: 2661 29b3 6ef4 e53f 2e8d 9b8d 77f3 e53f
00000460: 8c75 9c98 7cf2 e53f 8a66 a3c4 7df1 e53f
00000470: 6812 f101 7bf0 e53f f7e5 8e40 74ef e53f
00000480: b05c 4e70 69ee e53f 3d54 c880 5aed e53f
00000490: 7d5f 5c61 47ec e53f 2719 3001 30eb e53f
000004a0: 0776 2e4f 14ea e53f e016 073a f4e8 e53f
000004b0: 1d9a 2db0 cfe7 e53f 41ed d89f a6e6 e53f
000004c0: 3d9e 02f7 78e5 e53f b52c 66a3 46e4 e53f
000004d0: 445b 8092 0fe3 e53f de80 8eb1 d3e1 e53f
000004e0: 53da 8ded 92e0 e53f 14dc 3a33 4ddf e53f
000004f0: 5584 106f 02de e53f 84ad 478d b2dc e53f
00000500: 6261 d679 5ddb e53f 992c 6f20 03da e53f
00000510: 1673 806c a3d8 e53f 37c5 3349 3ed7 e53f
00000520: d135 6da1 d3d5 e53f 4fb1 ca5f 63d4 e53f
00000530: e655 a36e edd2 e53f 1bcd 06b8 71d1 e53f
00000540: 9ba6 bc25 f0cf e53f a6b4 43a1 68ce e53f
00000550: 0c6a d113 dbcc e53f 093a 5166 47cb e53f
00000560: f6f9 6381 adc9 e53f 1f45 5f4d 0dc8 e53f
00000570: c5e2 4cb2 66c6 e53f 872e ea97 b9c4 e53f
00000580: 4f83 a7e5 05c3 e53f fea8 a782 4bc1 e53f
00000590: f144 bf55 8abf e53f 8d4d 7445 c2bd e53f
000005a0: 2081 fd37 f3bb e53f 18e0 4113 1dba e53f
000005b0: de2a d8bc 3fb8 e53f 8f63 061a 5bb6 e53f
000005c0: b753 c10f 6fb4 e53f 3b16 ac82 7bb2 e53f
000005d0: d2a5 1757 80b0 e53f 1770 0271 7dae e53f
000005e0: 9aed 17b4 72ac e53f fe3e b003 60aa e53f
000005f0: 9acf cf42 45a8 e53f a2fd 2654 22a6 e53f
00000600: 54c8 111a f7a3 e53f 3784 9776 c3a1 e53f
00000610: d895 6a4b 879f e53f 4133 e879 429d e53f
00000620: 602c 18e3 f49a e53f c4ba ac67 9e98 e53f
00000630: f958 02e8 3e96 e53f afa1 1f44 d693 e53f
00000640: 3137 b55b 6491 e53f 51b3 1d0e e98e e53f
00000650: 3ba0 5d3a 648c e53f 687a 23bf d589 e53f
00000660: 2ebc c77a 3d87 e53f 14f3 4c4b 9b84 e53f
00000670: 82df 5f0e ef81 e53f ed9e 57a1 387f e53f
00000680: 09e1 35e1 777c e53f 5028 a7aa ac79 e53f
00000690: 4316 03da d676 e53f bfc3 4c4b f673 e53f
000006a0: ec25 33da 0a71 e53f fa7f 1162 146e e53f
000006b0: 54e2 efbd 126b e53f 73b7 83c8 0568 e53f
000006c0: f15e 305c ed64 e53f 35d7 0753 c961 e53f
000006d0: 2276 cb86 995e e53f 49b1 ecd0 5d5b e53f
000006e0: 0af6 8d0a 1658 e53f 1792 830c c254 e53f
000006f0: cdac 54af 6151 e53f e351 3ccb f44d e53f
00000700: e68d 2a38 7b4a e53f e69c c5cd f446 e53f
00000710: f62b 6b63 6143 e53f cfad 31d0 c03f e53f
00000720: 3ac3 e9ea 123c e53f a1b7 1f8a 5738 e53f
00000730: 4f12 1d84 8e34 e53f e33c eaae b730 e53f
00000740: 713f 50e0 d22c e53f c492 daed df28 e53f
00000750: 5709 d9ac de24 e53f 71cf 61f2 ce20 e53f
00000760: f282 5393 b01c e53f 3a63 5764 8318 e53f
00000770: c599 e339 4714 e53f e69b 3de8 fb0f e53f
00000780: 1aa6 7c43 a10b e53f 8e51 8c1f 3707 e53f
00000790: 1a44 2f50 bd02 e53f 71fb 01a9 33fe e43f
000007a0: bcb3 7dfd 99f9 e43f 436a fb20 f0f4 e43f
000007b0: 77fc b6e6 35f0 e43f f063 d221 6beb e43f
000007c0: a40f 59a5 8fe6 e43f ea5a 4344 a3e1 e43f
000007d0: 9122 7ad1 a5dc e43f 8778 da1f 97d7 e43f
000007e0: 5c76 3902 77d2 e43f 152f 684b 45cd e43f
000007f0: 89c0 37ce 01c8 e43f b784 7d5d acc2 e43f
0.6937786426544309 0.6936849635796449 0.6935725542795931 0.6934767265826797 0.6934048417961894 0.6933521246316359 0.6933113729927567 0.6932768931161455
0.6932452123501537 0.6932145694243931 0.6931842168044918 0.6931539016647127 0.6931235684031265 0.6930932192829592 0.6930628624418905 0.693032499000939
0.6930021236426356 0.6929717277587539 0.6929413017648206 0.6929108361892486 0.6928803219728356 0.6928497504210702 0.6928191130686768 0.6927884015633473
0.692757607592691 0.6927267228463997 0.6926957389994982 0.6926646477057697 0.6926334405950837 0.6926021092717256 0.6925706453126989 0.6925390402657825
0.6925072856474053 0.6924753729404197 0.6924432935918449 0.6924110390106014 0.6923786005652507 0.6923459695817344 0.6923131373411132 0.692280095077301
0.6922468339747919 0.6922133451663806 0.6921796197308728 0.692145648690788 0.6921114230100504 0.6920769335916714 0.6920421712754216 0.692007126835489
0.6919717909781292 0.6919361543393001 0.6919002074822861 0.6918639408953083 0.6918273449891215 0.6917904100945954 0.6917531264602839 0.6917154842499764
0.6916774735402363 0.6916390843179211 0.6916003064776866 0.6915611298194745 0.6915215440459827 0.6914815387601164 0.691441103462422 0.6914002275485008
0.6913589003064048 0.6913171109140113 0.6912748484363781 0.6912321018230777 0.6911888599055094 0.6911451113941917 0.6911008448760303 0.6910560488115659
0.6910107115321963 0.6909648212373779 0.6909183659918017 0.690871333722545 0.690823712216199 0.690775489115972 0.690726651918765 0.6906771879722235
0.6906270844717617 0.6905763284575609 0.6905249068115399 0.690472806254299 0.6904200133420352 0.6903665144634301 0.6903122958365081 0.6902573435054671
0.6902016433374787 0.6901451810194598 0.6900879420548133 0.6900299117601398 0.6899710752619177 0.6899114174931524 0.6898509231899963 0.689789576888334
0.6897273629203393 0.6896642654109981 0.6896002682745995 0.6895353552111958 0.6894695097030276 0.6894027150109182 0.6893349541706342 0.6892662099892118
0.6891964650412525 0.6891257016651825 0.6890539019594791 0.6889810477788658 0.68890712073047 0.6888321021699492 0.6887559731975827 0.688678714654329
0.6886003071178495 0.6885207308984985 0.6884399660352785 0.6883579922917629 0.688274789151983 0.6881903358162842 0.6881046111971449 0.688017593914966
0.6879292622938245 0.6878395943571948 0.6877485678236379 0.6876561601024579 0.687562348289326 0.6874671091618735 0.6873704191752527 0.6872722544576677
0.687172590805874 0.6870714036806488 0.6869686682022313 0.6868643591457354 0.6867584509365321 0.6866509176456063 0.6865417329848867 0.6864308703025491
0.6863183025782937 0.6862040024186006 0.6860879420519594 0.6859700933240782 0.6858504276930701 0.6857289162246201 0.6856055295871331 0.6854802380468631
0.6853530114630271 0.6852238192829031 0.6850926305369139 0.6849594138336997 0.6848241373551794 0.6846867688516021 0.6845472756365926 0.6844056245821905
0.6842617821138856 0.6841157142056519 0.6839673863749813 0.6838167636779209 0.6836638107041132 0.6835084915718448 0.6833507699231044 0.6831906089186508
0.6830279712330987 0.6828628190500182 0.6826951140570567 0.6825248174410835 0.6823518898833588 0.6821762915547341 0.681997982110883 0.6818169206875696
0.6816330658959545 0.6814463758179456 0.6812568080015935 0.6810643194565397 0.6808688666495175 0.6806704054999136 0.6804688913753912 0.6802642790875816
0.6800565228878471 0.6798455764631226 0.679631392931837 0.6794139248399219 0.6791931241569138 0.6789689422721521 0.6787413299910801 0.6785102375316557
0.6782756145208769 0.6780374099914249 0.6777955723784379 0.677550049516415 0.6773007886362621 0.6770477363624818 0.6767908387105195 0.6765300410842665
0.676265288273735 0.6759965244529046 0.6757236931777539 0.6754467373844834 0.6751655993879346 0.6748802208802194 0.6745905429295639 0.6742965059793756
0.6739980498475459 0.6736951137259927 0.673387636180457 0.6730755551505583 0.6727588079501226 0.6724373312677892 0.6721110611679111 0.6717799330917537
0.6714438818590064 0.671102841669617 0.6707567461059586 0.6704055281353404 0.6700491201128762 0.6696874537847173 0.6693204602916674 0.6689480701731852
0.6685702133717922 0.6681868192378945 0.667797816535032 0.6674031334455687 0.6670026975768348 0.6665964359677358 0.6661842750958386 0.6657661408849517
0.6653419587132106 0.6649116534216801 0.6644751493234924 0.6640323702135279 0.6635832393786594 0.663127679608568 0.6626656132071477 0.6621969620045117
0.6617216473696158 0.6612395902235098 0.660750711053235 0.6602549299263797 0.6597521665063069 0.659242340068068 0.6587253695150187 0.6582011733961479
0.6576696699241353 0.6571307769941528 0.6565844122034179 0.6560304928715209 0.6554689360615309 0.654899658601899 0.6543225771091689 0.6537376080115092
0.6531446675730774 0.6525436719192304 0.651934537062589 0.6513171789299727 0.65069151339021 0.65005745628284 0.6494149234477088 0.6487638307554765

valid_error f8 [10000]
00000000: 7f78 b04d 8732 e63f 7640 00ad 9e31 e63f
00000010: 9fca 5a3e d930 e63f a505 7e2d 4630 e63f
00000020: 2cc7 4e59 db2f e63f 6963 2a9c 892f e63f
00000030: 4c9a 3402 452f e63f b642 1b43 062f e63f
00000040: 5136 43ae c92e e63f d19a 60b3 8d2e e63f
00000050: 6923 8acb 512e e63f 789f 7ad9 152e e63f
00000060: 98a8 ccde d92d e63f 8c32 22e0 9d2d e63f
00000070: 786e 47de 612d e63f 609c 8cd6 252d e63f
00000080: 08f8 7cc4 e92c e63f 2503 20a3 ad2c e63f
00000090: ac4e 906d 712c e63f f886 241f 352c e63f
000000a0: e335 68b3 f82b e63f ec4c 0826 bc2b e63f
000000b0: 6c65 c272 7f2b e63f 801e 5a95 422b e63f
000000c0: 4184 9389 052b e63f 1689 304b c82a e63f
000000d0: da06 f0d5 8a2a e63f ec5f 8d25 4d2a e63f
000000e0: bb50 c035 0f2a e63f 5ac6 3c02 d129 e63f
000000f0: e1ad b286 9229 e63f 9dbb cdbe 5329 e63f
00000100: 382c 35a6 1429 e63f 6d81 8b38 d528 e63f
00000110: b63b 6e71 9528 e63f c691 754c 5528 e63f
00000120: 5226 34c5 1428 e63f a6bc 36d7 d327 e63f
00000130: 61ec 037e 9227 e63f 9cd4 1bb5 5027 e63f
00000140: bace f777 0e27 e63f dc20 0ac2 cb26 e63f
00000150: 45b0 bd8e 8826 e63f 57b3 75d9 4426 e63f
00000160: 9463 8d9d 0026 e63f 2daf 57d6 bb25 e63f
00000170: 61ea 1e7f 7625 e63f 8880 2493 3025 e63f
00000180: b4a4 a00d ea24 e63f fb01 c2e9 a224 e63f
00000190: 3f6b ad22 5b24 e63f 948a 7db3 1224 e63f
000001a0: 2390 4297 c923 e63f 8de0 01c9 7f23 e63f
000001b0: cfc2 b543 3523 e63f 9a0d 4d02 ea22 e63f
000001c0: 1ad4 aaff 9d22 e63f 3812 a636 5122 e63f
000001d0: 3f58 09a2 0322 e63f e975 923c b521 e63f
000001e0: d724 f200 6621 e63f 61b2 cbe9 1521 e63f
000001f0: bca8 b4f1 c420 e63f 9277 3413 7320 e63f
00000200: ca1b c448 2020 e63f c0c6 cd8c cc1f e63f
00000210: b684 acd9 771f e63f 89e2 ab29 221f e63f
00000220: c892 0777 cb1e e63f e111 ebbb 731e e63f
00000230: b449 71f2 1a1e e63f 3b34 a414 c11d e63f
00000240: 837d 7c1c 661d e63f c324 e103 0a1d e63f
00000250: ae1c a7c4 ac1c e63f e4ea 9058 4e1c e63f
00000260: 9446 4eb9 ee1b e63f 36b6 7be0 8d1b e63f
00000270: 6a2c a2c7 2b1b e63f f7a3 3668 c81a e63f
00000280: daba 99bb 631a e63f 6c4c 17bb fd19 e63f
00000290: 9c0a e65f 9619 e63f 3b16 27a3 2d19 e63f
000002a0: 4896 e57d c318 e63f 484e 16e9 5718 e63f
000002b0: b133 97dd ea17 e63f 3f02 2f54 7c17 e63f
000002c0: 57cf 8c45 0c17 e63f 659c 47aa 9a16 e63f
000002d0: 2fe8 dd7a 2716 e63f 1c3f b5af b215 e63f
000002e0: 77ca 1941 3c15 e63f 9cde 3d27 c414 e63f
000002f0: 1788 395a 4a14 e63f aa17 0ad2 ce13 e63f
00000300: 45ad 9186 5113 e63f e3c1 966f d212 e63f
00000310: 40b0 c384 5112 e63f 853c a6bd ce11 e63f
00000320: d41a af11 4a11 e63f 9f74 3178 c310 e63f
00000330: f16c 62e8 3a10 e63f 91a3 5859 b00f e63f
00000340: fbb6 0bc2 230f e63f 38c5 5319 950e e63f
00000350: 86eb e855 040e e63f e3c4 626e 710d e63f
00000360: 69e7 3759 dc0c e63f 7d60 bd0c 450c e63f
00000370: e62f 267f ab0b e63f 9fc1 82a6 0f0b e63f
00000380: 8e66 c078 710a e63f 17cc a8eb d009 e63f
00000390: 7b72 e1f4 2d09 e63f 0522 eb89 8808 e63f
000003a0: 2c5f 21a0 e007 e63f 66dd b92c 3607 e63f
000003b0: 03f1 c324 8906 e63f a5ff 277d d905 e63f
000003c0: e1ef a62a 2705 e63f 7697 d921 7204 e63f
000003d0: 9728 3057 ba03 e63f ff9d f1be ff02 e63f
000003e0: f325 3b4d 4202 e63f 318c fff5 8101 e63f
000003f0: bda2 06ad be00 e63f ada9 ec65 f8ff e53f
00000400: e9b5 2114 2fff e53f d616 e9aa 62fe e53f
00000410: 0abb 581d 93fd e53f 0094 585e c0fc e53f
00000420: d2f8 a160 eafb e53f 0008 bf16 11fb e53f
00000430: 4f08 0a73 34fa e53f c0c8 ac67 54f9 e53f
00000440: a9ff 9fe6 70f8 e53f f3a8 aae1 89f7 e53f
00000450: 9663 614a 9ff6 e53f 3fce 2512 b1f5 e53f
00000460: 46e3 252a bff4 e53f ea53 5b83 c9f3 e53f
00000470: e1e2 8a0e d0f2 e53f 57be 43bc d2f1 e53f
00000480: 3dd9 de7c d1f0 e53f 3644 7e40 ccef e53f
00000490: e685 0cf7 c2ee e53f eaf2 3b90 b5ed e53f
000004a0: 5c05 86fb a3ec e53f 12b4 2a28 8eeb e53f
000004b0: 93c9 2f05 74ea e53f da3a 6081 55e9 e53f
000004c0: e97d 4b8b 32e8 e53f 5ce0 4411 0be7 e53f
000004d0: eedd 6201 dfe5 e53f 0577 7e49 aee4 e53f
000004e0: 8087 32d7 78e3 e53f 941d db97 3ee2 e53f
000004f0: 1cd1 9478 ffe0 e53f 381b 3c66 bbdf e53f
00000500: 5aae 6c4d 72de e53f 05cf 801a 24dd e53f
00000510: 0fad 90b9 d0db e53f cabd 7116 78da e53f
00000520: dc16 b61c 1ad9 e53f 48ca abb7 b6d7 e53f
00000530: 4f43 5cd2 4dd6 e53f b7a4 8b57 dfd4 e53f
00000540: 3b28 b831 6bd3 e53f 7c7f 194b f1d1 e53f
00000550: 8836 a08d 71d0 e53f fb17 f5e2 ebce e53f
00000560: 0d93 7834 60cd e53f 8a23 426b cecb e53f
00000570: efbb 1f70 36ca e53f bd31 952b 98c8 e53f
00000580: 51ac db85 f3c6 e53f 3116 e166 48c5 e53f
00000590: 3391 47b6 96c3 e53f 8aed 645b dec1 e53f
000005a0: d323 423d 1fc0 e53f 86d2 9a42 59be e53f
000005b0: d2be dc51 8cbc e53f 1359 2751 b8ba e53f
000005c0: 3b45 4b26 ddb8 e53f 33e7 c9b6 fab6 e53f
000005d0: 83f3 d4e7 10b5 e53f 8304 4e9e 1fb3 e53f
000005e0: 2c34 c6be 26b1 e53f e5ba 7d2d 26af e53f
000005f0: 7393 63ce 1dad e53f 4824 1585 0dab e53f
00000600: 8dee dd34 f5a8 e53f f842 b7c0 d4a6 e53f
00000610: e9fc 470b aca4 e53f d143 e4f6 7aa2 e53f
00000620: 6953 8d65 41a0 e53f d74a f138 ff9d e53f
00000630: 1603 6b52 b49b e53f e9ec 0193 6099 e53f
00000640: b6f6 69db 0397 e53f 777a 030c 9e94 e53f
00000650: 3834 db04 2f92 e53f 4d41 aaa5 b68f e53f
00000660: b628 d6cd 348d e53f ecec 705c a98a e53f
00000670: 8527 3930 1488 e53f e92e 9a27 7585 e53f
00000680: a046 ac20 cc82 e53f 5fda 34f9 1880 e53f
00000690: 63c4 a68e 5b7d e53f 579f 22be 937a e53f
000006a0: 4124 7764 c177 e53f bf94 215e e474 e53f
000006b0: 0e32 4e87 fc71 e53f 37c1 d8bb 096f e53f
000006c0: cf1c 4dd7 0b6c e53f a6d4 e7b4 0269 e53f
000006d0: f3db 962f ee65 e53f 2c46 fa21 ce62 e53f
000006e0: 4113 6566 a25f e53f 6e0b ded6 6a5c e53f
000006f0: 36ab 204d 2759 e53f e61f 9ea2 d755 e53f
00000700: 2455 7eb0 7b52 e53f ec13 a14f 134f e53f
00000710: 8033 9f58 9e4b e53f b2dc cba3 1c48 e53f
00000720: 09e0 3509 8e44 e53f 361f a960 f240 e53f
00000730: 520a b081 493d e53f 5431 9543 9339 e53f
00000740: 44ea 647d cf35 e53f 9f0c ef05 fe31 e53f
00000750: 69c2 c8b3 1e2e e53f 5a6f 4e5d 312a e53f
00000760: a8ae a5d8 3526 e53f f367 bffb 2b22 e53f
00000770: aefb 599c 131e e53f 9387 0390 ec19 e53f
00000780: 9843 1cac b615 e53f c5f7 d8c5 7111 e53f
00000790: 858b 45b2 1d0d e53f baae 4746 ba08 e53f
000007a0: 239d a156 4704 e53f 81fc f4b7 c4ff e43f
000007b0: dad5 c53e 32fb e43f 44aa 7dbf 8ff6 e43f
000007c0: c4a3 6e0e ddf1 e43f 6ae2 d6ff 19ed e43f
000007d0: 45e6 e367 46e8 e43f 7116 b61a 62e3 e43f
000007e0: 9865 64ec 6cde e43f 4e14 00b1 66d9 e43f
000007f0: 8991 983c 4fd4 e43f 9279 3f63 26cf e43f
0.6936680333490272 0.693557107822939 0.6934629648079244 0.693392838337037 0.6933418983737503 0.6933029222592327 0.6932702105594415 0.6932402907060211
0.6932114032330877 0.6931828025306804 0.6931542373068683 0.6931256530415189 0.6930970527221403 0.6930684449776705 0.6930398312938015 0.693011206666494
0.6929825627955788 0.6929538904224485 0.6929251804271721 0.6928964241271549 0.6928676132244472 0.6928387396641518 0.6928097955125572 0.6927807728797717
0.6927516638790011 0.692722460608169 0.6926931551426734 0.6926637395326884 0.6926342058018443 0.6926045459460497 0.69257475193211 0.6925448156961128
0.6925147291416414 0.6924844841378622 0.6924540725175266 0.6924234860749088 0.6923927165636974 0.6923617556948514 0.6923305951344326 0.6922992265014218
0.6922676413655247 0.6922358312449677 0.6922037876042927 0.6921715018521394 0.6921389653390286 0.692106169355133 0.6920731051280421 0.6920397638205182
0.6920061365282408 0.6919722142775407 0.6919379880231203 0.6919034486457627 0.6918685869500262 0.6918333936619249 0.6917978594265949 0.6917619748059451
0.691725730276292 0.6916891162259793 0.6916521229529805 0.6916147406624847 0.6915769594644655 0.6915387693712313 0.6915001602949569 0.6914611220451994
0.6914216443263907 0.6913817167353145 0.6913413287585601 0.6913004697699573 0.6912591290279915 0.6912172956731945 0.6911749587255174 0.6911321070816777
0.6910887295124869 0.6910448146601528 0.6910003510355602 0.6909553270155269 0.6909097308400356 0.6908635506094416 0.6908167742816549 0.690769389669298
0.6907213844368372 0.6906727460976874 0.6906234620112914 0.6905735193801726 0.6905229052469588 0.6904716064913794 0.6904196098272363 0.6903669017993436
0.6903134687804408 0.6902592969680766 0.6902043723814638 0.6901486808583033 0.6900922080515802 0.690034939426329 0.689976860256368 0.6899179556210033
0.6898582104017029 0.6897976092787385 0.6897361367277952 0.6896737770165521 0.6896105142012297 0.689546332123104 0.6894812144049906 0.6894151444476951
0.6893481054264322 0.6892800802872108 0.6892110517431866 0.6891410022709831 0.6890699141069777 0.6889977692435562 0.6889245494253344 0.6888502361453454
0.6887748106411935 0.6886982538911778 0.6886205466103797 0.688541669246718 0.6884616019769729 0.6883803247027742 0.6882978170465609 0.6882140583475019
0.6881290276573929 0.6880427037365127 0.6879550650494534 0.6878660897609165 0.687775755731478 0.6876840405133234 0.6875909213459505 0.6874963751518429
0.6874003785321153 0.6873029077621264 0.6872039387870654 0.6871034472175097 0.6870014083249549 0.686897797037318 0.6867925879344144 0.6866857552434098
0.6865772728342466 0.686467114215047 0.6863552525274936 0.6862416605421869 0.686126310653983 0.6860091748773105 0.6858902248414688 0.6857694317859097
0.6856467665554998 0.6855221995957723 0.6853957009481604 0.6852672402452218 0.6851367867058502 0.6850043091304789 0.6848697758962764 0.6847331549523361
0.6845944138148613 0.6844535195623496 0.6843104388307759 0.6841651378087766 0.6840175822328405 0.6838677373825015 0.6837155680755447 0.6835610386632203
0.6834041130254704 0.6832447545661756 0.6830829262084154 0.682918590389755 0.6827517090575514 0.6825822436642932 0.6824101551629641 0.6822354040024469
0.6820579501229597 0.6818777529515354 0.6816947713975461 0.6815089638482726 0.6813202881645296 0.6811287016763441 0.6809341611786958 0.6807366229273196
0.6805360426345805 0.680332375465417 0.6801255760333674 0.6799155983966767 0.6797023960544898 0.6794859219431408 0.6792661284325396 0.6790429673226605
0.678816389840143 0.6785863466350065 0.6783527877774848 0.6781156627549908 0.6778749204692125 0.67763050923335 0.6773823767694992 0.6771304702061878
0.6768747360760742 0.6766151203138113 0.6763515682540887 0.6760840246298533 0.675812433570724 0.675536738601603 0.675256882641494 0.6749728080025338
0.6746844563892498 0.6743917688980464 0.674094686016935 0.6737931476255113 0.6734870929951942 0.673176460789731 0.672861189065984 0.6725412152750013
0.6722164762633902 0.6718869082749953 0.6715524469528983 0.6712130273417455 0.6708685838904175 0.6705190504550486 0.6701643603024097 0.6698044461136651
0.6694392399885148 0.6690686734497333 0.6686926774481193 0.6683111823678636 0.6679241180323531 0.6675314137104189 0.6671329981230432 0.6667287994505358
0.6663187453401958 0.665902762914468 0.6654807787796102 0.665052719034881 0.6646185092822644 0.6641780746367434 0.6637313397371349 0.6632782287575005
0.6628186654191457 0.6623525730032219 0.6618798743639448 0.6614004919424403 0.660914347781234 0.6604213635393975 0.6599214605083625 0.6594145596284186
0.6589005815059066 0.6583794464311202 0.6578510743969309 0.6573153851181452 0.6567722980516105 0.6562217324170804 0.6556636072188511 0.6550978412681805
0.6545243532065048 0.6539430615294581 0.6533538846117116 0.6527567407326399 0.6521515481028244 0.6515382248914052 0.6509166892542889 0.6502868593632221
